models/pytorch_beer_style.pt (torch, 18899 bytes, 4 tensors)

weight f4 [32, 20]
0	0xbdeaf767	-0.114729695
1	0xc08021f4	-4.0041447
2	0xbf51a036	-0.8188509
3	0xc0af79cc	-5.483618
4	0xc0bb98d4	-5.862406
5	0xbf2927e4	-0.66076493
6	0xc08678f5	-4.2022653
7	0xc06fddf4	-3.747922
8	0xc09eca7f	-4.9622188
9	0xc0a0a6ea	-5.0203753
10	0xc0696e44	-3.647355
11	0xc09f2c85	-4.9741845
12	0xc0d269f5	-6.575434
13	0xc078b448	-3.8860035
14	0xc02e99ca	-2.7281365
15	0x3e5ead07	0.21745692
16	0x3e853b58	0.26021838
17	0xbda197bf	-0.078902714
18	0xbf197fda	-0.5996071
19	0x3f704a7b	0.9386365
20	0x3e4b0f1e	0.19829985
21	0xbfd96ab0	-1.6985683
22	0xbebd33ae	-0.3695349
23	0xbfaeff01	-1.3671571
24	0xbf13a389	-0.5767141
25	0xbea32313	-0.31862697
26	0xbf0c2a75	-0.54752284
27	0xbf46590c	-0.77479625
28	0xbeb2d5ac	-0.34928644
29	0xbf04a9a1	-0.51821333
30	0xbed4ab89	-0.4153712
31	0xbf476210	-0.77884007
32	0xbf0a53d6	-0.54034173
33	0xbf05c409	-0.5225225
34	0x3fab12ea	1.3365147
35	0xbe99fbf5	-0.3007504
36	0xbe078b2a	-0.1323668
37	0x3f596291	0.84916025
38	0xbec012f1	-0.3751445
39	0xbe83e53d	-0.25760832
40	0xbdc8b6bf	-0.09800481
41	0xbea94860	-0.3306303
42	0xbf4f3439	-0.8093906
43	0xbe270f5f	-0.16314457
44	0xbf51c489	-0.81940514
45	0xbf740cf8	-0.9533229
46	0xbf1c95b1	-0.6116591
47	0xbfb9ec7f	-1.4525298
48	0xbf94f27d	-1.1636502
49	0xbf7fc441	-0.99908835
50	0xbf3979f7	-0.7245173
51	0xbea009cc	-0.31257474
52	0xbeaf8973	-0.34284553
53	0xbf203895	-0.6258634
54	0xbc341ca3	-0.010993156
55	0x3eac5f5c	0.33666503
56	0xbe39fede	-0.1816363
57	0x3f188c30	0.5958891
58	0x3e40a4e7	0.18812905
59	0x3f19990c	0.59999156
60	0xbe2c3277	-0.16816126
61	0xc0ebbcb0	-7.366783
62	0xbec967fc	-0.39337146
63	0xc097fcba	-4.7496004
64	0x3fbe1382	1.4849703
65	0xc094484e	-4.6338263
66	0xc1030505	-8.188725
67	0xc1197aff	-9.592528
68	0xc0cef61d	-6.467543
69	0xc096f76a	-4.717702
70	0xc08d1915	-4.409312
71	0xc08f7963	-4.4835677
72	0xc0a821ae	-5.2541113
73	0xc09cfcd7	-4.9058642
74	0xc01e03bd	-2.4689782
75	0xbfed70e8	-1.8550081
76	0x4049d0c5	3.1533673
77	0xc0474e9c	-3.114173
78	0x3f161c51	0.5863696
79	0x3f20c43a	0.6279942
80	0x3e3aa7a4	0.18228012
81	0x3f575d64	0.8412688
82	0xbfb3666f	-1.4015635
83	0xc0660436	-3.594007
84	0xc003d53d	-2.05989
85	0xc0028518	-2.0393734
86	0xc0b331ae	-5.5998144
87	0xc08b2117	-4.3477893
88	0x4034ff92	2.8280988
89	0xc04c0514	-3.18781
90	0xc0430f82	-3.0478215
91	0x4012e52b	2.2952373
92	0x407287e7	3.7895448
93	0xc06c3d04	-3.691224
94	0xc06a0a7d	-3.6568902
95	0x40e4b991	7.147652
96	0x4109bea5	8.609044
97	0x40a39f86	5.113223
98	0x40c9471d	6.289931
99	0x40fe19ce	7.94065
100	0x3e21d700	0.15804672
101	0xc17e2ccc	-15.885937
102	0x418135fb	16.151358
103	0x4197454e	18.90884
104	0x41a77f41	20.937136
105	0x41dc2c90	27.521759
106	0x41e96f54	29.17936
107	0x4116cd4d	9.425122
108	0x4191589f	18.168272
109	0x415d68fc	13.838131
110	0x409c4e5e	4.8845663
111	0x419eca0d	19.848658
112	0x41372e12	11.448748
113	0x40d52227	6.660419
114	0xc1086bc8	-8.526314
115	0x4186a598	16.830856
116	0x41962257	18.766768
117	0x414c52e2	12.770235
118	0x4180609f	16.047178
119	0x40f91845	7.7842126
120	0x3e4330aa	0.19061533
121	0xc0748a2d	-3.8209336
122	0x3ffbc217	1.9668607
123	0xc114720f	-9.277846
124	0xc0fdf5e9	-7.9362683
125	0xc120561a	-10.021021
126	0xc0f29682	-7.5808725
127	0xc19bbbf2	-19.46677
128	0xc116a956	-9.416342
129	0xc14f1478	-12.942497
130	0xc0d243ab	-6.5707603
131	0xc0a58987	-5.173038
132	0xc1760078	-15.375114
133	0xc0bcc5b9	-5.899136
134	0x408f854a	4.4850206
135	0x4194c90a	18.598164
136	0x3ef5c59f	0.48002335
137	0xc112c141	-9.172181
138	0x3ff35bd7	1.9012402
139	0x3fcaedf7	1.5853871
140	0xbdc9fd1d	-0.09862731
141	0x40b8a179	5.769711
142	0x4082de35	4.089625
143	0x41780853	15.502032
144	0xc065ca5c	-3.590476
145	0x420c5161	35.07947
146	0x41ae80dc	21.81292
147	0x41697694	14.59145
148	0x4102b873	8.170032
149	0x4068e435	3.6389287
150	0x4169bdaa	14.608805
151	0x416408fd	14.252194
152	0x41612f98	14.07412
153	0x40cc1254	6.3772373
154	0x422d8d24	43.387833
155	0x40573dbd	3.3631432
156	0xc09d61db	-4.9181952
157	0xc008c595	-2.1370595
158	0x4182c26e	16.344936
159	0xc126b9bc	-10.420345
160	0xbd765e7a	-0.060148694
161	0x4187fef8	16.999496
162	0x4066bfc8	3.6054554
163	0x4192245f	18.26776
164	0x4174789c	15.279446
165	0xc0c07a3c	-6.014921
166	0x4119c0da	9.609583
167	0x41504304	13.016361
168	0x419f1a5c	19.88787
169	0x416d73cf	14.840774
170	0x40efdfc3	7.4960647
171	0x41bb2e9a	23.397755
172	0x41b56829	22.67586
173	0x411a30e5	9.636937
174	0xc10bdf96	-8.742086
175	0xc11d79ac	-9.842205
176	0xc17551a1	-15.332429
177	0xc1d70d09	-26.881365
178	0xc1b5923e	-22.696407
179	0xc17f58d7	-15.959189
180	0xbb3307ca	-0.0027317875
181	0x40abeb23	5.372453
182	0x3e98569c	0.29753578
183	0x41188581	9.532594
184	0xc1375d94	-11.460346
185	0x3fef5c5a	1.8700058
186	0x416e6c36	14.901419
187	0xc030e014	-2.7636766
188	0x40cd2dc0	6.4118347
189	0x406991e7	3.6495302
190	0x41afa89b	21.957327
191	0x411c7633	9.778857
192	0x41d3aade	26.458431
193	0xc198a262	-19.079288
194	0x403bab7d	2.9323418
195	0xc10f4124	-8.953403
196	0xc1fe687b	-31.801016
197	0xc18bc9d7	-17.473555
198	0xc18586ea	-16.690876
199	0xc0fc6323	-7.8871017
200	0x3c824afa	0.015904892
201	0xc139a52d	-11.602826
202	0x410246ef	8.142318
203	0xc17c8a0c	-15.783703
204	0x403f94cb	2.9934566
205	0xc14212c6	-12.129583
206	0x3fd12961	1.6340753
207	0x3fc9338f	1.571886
208	0x411245ec	9.142071
209	0xbffa5d7b	-1.9559778
210	0xc1d111d0	-26.133698
211	0xc108dd76	-8.554068
212	0xc1584c79	-13.51867
213	0x40c48791	6.1415486
214	0x41a1b97f	20.215574
215	0x3ea0f0a1	0.31433585
216	0xbf8fdbd8	-1.1238966
217	0x40ab8002	5.359376
218	0x40774cb3	3.8640563
219	0x4046d00d	3.1064484
220	0xbe6330e9	-0.22186626
221	0xbf45a1c0	-0.77199936
222	0xbf0fbd72	-0.56148446
223	0xbf369556	-0.7132162
224	0xbf51f87c	-0.8201978
225	0xbf593b57	-0.8485617
226	0xbf03a508	-0.5142369
227	0xbf526f81	-0.8220139
228	0xbf3638e7	-0.71180576
229	0xbf269c24	-0.65082
230	0x3d390490	0.045170367
231	0xbf4a4087	-0.7900471
232	0xbf44d8ef	-0.76893514
233	0xbf5d7125	-0.8650077
234	0xbf191757	-0.5980124
235	0x3da55d67	0.08074456
236	0xbf0836dc	-0.5320871
237	0xbe54def3	-0.20788173
238	0x3e9af314	0.3026358
239	0x3e495874	0.19662648
240	0x3d0b2f3d	0.033980597
241	0x40c1929b	6.049146
242	0x417beb9c	15.745022
243	0x41932bf8	18.39647
244	0xc159c803	-13.611331
245	0x419ed581	19.85425
246	0x41c9f33b	25.243765
247	0xbf400ddd	-0.75021154
248	0x40ce73d3	6.4516387
249	0x40dbb8b2	6.866296
250	0x41a2871b	20.31597
251	0xc0139c3d	-2.306411
252	0x40f1d431	7.5571523
253	0x40cb288f	6.348701
254	0x41597fa7	13.593665
255	0xbfda20ef	-1.70413

bias f4 [32]
0	0xc0cdaf14	-6.427622
1	0xbfb5e08d	-1.4209152
2	0xbf1cc712	-0.6124126
3	0xc156e171	-13.430039
4	0xbfa67b3e	-1.300636
5	0x41b3815c	22.438164
6	0xc14d71ec	-12.840313
7	0x41c0b568	24.088577
8	0x41f150f2	30.164524
9	0x4158aa92	13.541643
10	0xc16d6139	-14.836236
11	0xbf2c46bc	-0.6729543
12	0x4183b6f7	16.464338
13	0xc16ee24d	-14.930249
14	0xc13971ac	-11.590252
15	0xc0ff1703	-7.971559
16	0xbf9d8554	-1.2306314
17	0xc0b2363f	-5.569122
18	0x40e7b3f6	7.240718
19	0xbf97f91a	-1.1872895
20	0xc168e14a	-14.555002
21	0xc00e7341	-2.2257845
22	0x3f320ded	0.695525
23	0xc1b9387b	-23.152578
24	0x42054f86	33.32766
25	0xc0ed2de2	-7.411851
26	0xc1201de1	-10.007295
27	0xc1652ad5	-14.322957
28	0x4219a71d	38.413197
29	0xbf1a58eb	-0.6029193
30	0xc0cd2a28	-6.411396
31	0x41bf2231	23.891695

weight f4 [104, 32]
0	0xbf23c701	-0.6397553
1	0xbf3916b8	-0.7230029
2	0xbf23bf19	-0.63963467
3	0xbf677534	-0.9041321
4	0xbf5030f8	-0.8132472
5	0xbf379584	-0.7171252
6	0xbf5099b7	-0.8148455
7	0xbf62a6d2	-0.885358
8	0xbf3cc05d	-0.73731023
9	0xbf782402	-0.96929944
10	0x3e1301d7	0.1435617
11	0xbf25dafe	-0.6478728
12	0xbfa265f1	-1.268736
13	0xbef326cb	-0.47490534
14	0xbf86790e	-1.0505693
15	0xbf0dec02	-0.55438244
16	0xbf23f962	-0.640524
17	0xbf78026c	-0.96878695
18	0xbf72a9e6	-0.94790494
19	0xbf095b3b	-0.5365483
20	0xbf8aecc6	-1.0853508
21	0xbf79ffdc	-0.97656035
22	0xbf64efed	-0.894286
23	0x3e105081	0.1409321
24	0xbf503cb3	-0.8134262
25	0xbf4f530e	-0.80986106
26	0xbf5f37be	-0.8719443
27	0xc010de01	-2.26355
28	0xbf30dd57	-0.6908774
29	0x3dea915f	0.114535086
30	0xbf0e8994	-0.5567868
31	0xbf36b3a3	-0.71367854
32	0xbf2d8312	-0.6777812
33	0x3ea9d782	0.33172232
34	0x3f03277e	0.51232135
35	0xbef1033f	-0.4707279
36	0xbf127a2d	-0.57217675
37	0x3f096033	0.53662413
38	0xbff3781c	-1.902103
39	0xbe14830c	-0.14503115
40	0xbf99e253	-1.2022194
41	0x3eab8d25	0.33506122
42	0xbb3b1a77	-0.002854971
43	0xbef5afa8	-0.47985578
44	0xbf92a066	-1.14552
45	0xbfa1cd29	-1.2640735
46	0x3f27d731	0.6556273
47	0xbe764529	-0.2404982
48	0xbf2e08c4	-0.67982125
49	0xbf86a799	-1.0519897
50	0x3ef1f68f	0.47258422
51	0x3e6fc8c2	0.23416427
52	0xbec25264	-0.37953484
53	0xbe811ea0	-0.25218678
54	0xbfaa35aa	-1.3297627
55	0xbfa8d0e2	-1.3188746
56	0xbf90d6d8	-1.1315565
57	0xbeefe1d7	-0.4685199
58	0x3f01d5ef	0.5071706
59	0xbf0c2f6b	-0.54759854
60	0x3f491c78	0.78559065
61	0xbf5aca10	-0.8546457
62	0xbfc23eff	-1.5175475
63	0xbf2966c8	-0.66172457
64	0xbeeccb23	-0.4624873
65	0xbf515092	-0.81763566
66	0xbf16177f	-0.586296
67	0x3f97a996	1.1848629
68	0xbf6f7827	-0.9354271
69	0xbec274a8	-0.37979627
70	0xbf988070	-1.1914196
71	0xbe184db7	-0.14873396
72	0x3f52aca7	0.82294697
73	0xbe490aeb	-0.19633071
74	0xbfca2df6	-1.5795276
75	0x3c46dab8	0.012137108
76	0xc0139262	-2.3058095
77	0xbfcfc45e	-1.6231802
78	0xc039ca0e	-2.9029574
79	0x3f0feb27	0.5621819
80	0xbf0bd0b9	-0.5461536
81	0xbf04f6fc	-0.5193937
82	0xc04dacd3	-3.2136734
83	0xbbf5d4ce	-0.007502175
84	0x3f30fe82	0.6913835
85	0xbda68f57	-0.08132809
86	0xc02b8a27	-2.6803071
87	0xbea1b218	-0.31581187
88	0xbf09e36a	-0.5386263
89	0xbecc15e5	-0.39860454
90	0x3e352212	0.17688778
91	0xc00b237f	-2.1740415
92	0xbf4bc520	-0.79597664
93	0x3e54c9c4	0.20780092
94	0xbf93fbe5	-1.1561247
95	0x3e40267a	0.18764678
96	0xbf1516bb	-0.5823781
97	0xbf52aa1e	-0.8229083
98	0xbf2dc4c4	-0.67878366
99	0xbf1fdc14	-0.6244519
100	0xbf3443c6	-0.70415914
101	0xbf60c429	-0.87799317
102	0xbf7e3d79	-0.9931255
103	0xbf641f59	-0.8911033
104	0xbf842932	-1.0325072
105	0xbf4b07dd	-0.79308873
106	0xbf861561	-1.0475274
107	0xbeecb312	-0.4623037
108	0xbf939e05	-1.1532599
109	0xbf404bcd	-0.7511566
110	0xbf3cc642	-0.7374002
111	0xbf24fefb	-0.6445157
112	0xbf34df16	-0.706529
113	0xbf783891	-0.96961313
114	0xbf8ae47b	-1.0850977
115	0xbf576d73	-0.8415138
116	0xbf88abbe	-1.0677412
117	0xbf4d4ec4	-0.8019831
118	0xbf883f57	-1.064433
119	0xbf25eedd	-0.648176
120	0xbf8096de	-1.0046041
121	0xbf6e64e0	-0.93122673
122	0xbf6ea228	-0.9321618
123	0xc020d6b1	-2.5131037
124	0xbf4cd8a8	-0.8001809
125	0xbf277aef	-0.65421957
126	0xbf123cf7	-0.57124275
127	0xbf3ab009	-0.7292486
128	0xbef849fe	-0.48493952
129	0xbf3178af	-0.69324774
130	0xbf04cf10	-0.5187845
131	0xbf56a345	-0.8384288
132	0x3f3b4824	0.7315695
133	0xbf7eca6a	-0.9952761
134	0x3f1bfa26	0.6092857
135	0x3f1205c4	0.5704005
136	0x3d052283	0.032503616
137	0xbf7d0123	-0.9882986
138	0xbf7fdf3a	-0.9994999
139	0xbeeee447	-0.46658537
140	0xbeb03ee9	-0.34422997
141	0xbf2a6876	-0.66565645
142	0xbee59cca	-0.44846183
143	0xbf4296df	-0.7601146
144	0xbf1024a9	-0.5630594
145	0xbf8a0c54	-1.0785012
146	0xbe0ca1e7	-0.13733636
147	0xbf4c72f6	-0.79862916
148	0xbfe6bab4	-1.8025727
149	0xbf3fc874	-0.7491524
150	0xbeaf815b	-0.34278378
151	0xbf6988ad	-0.91224176
152	0xbf8f1ed5	-1.1181284
153	0xbf3630a8	-0.71167994
154	0x3e32d3ba	0.1746358
155	0xc0794145	-3.8946087
156	0x3ec40146	0.38282222
157	0xbf4f9035	-0.8107942
158	0xc0019a43	-2.0250404
159	0xbeea5f98	-0.45776057
160	0xbf0e6202	-0.556183
161	0xbf10acb3	-0.5651352
162	0xbe552dd7	-0.20818268
163	0xbf1ba71f	-0.6080188
164	0xbf0a81fc	-0.5410459
165	0xbf47e264	-0.7807982
166	0xbf1998f9	-0.5999904
167	0xbf3eb6f8	-0.7449794
168	0xbf0a6eb0	-0.54075146
169	0xbee60726	-0.4492733
170	0xbf4d5259	-0.8020378
171	0x3eb1c8c8	0.34723496
172	0xbf3b31f6	-0.7312311
173	0xbf07dbd0	-0.5306978
174	0xbf056bec	-0.521178
175	0xbe9be7a2	-0.3045016
176	0xbf80043b	-1.0001291
177	0xbefa14a1	-0.48843864
178	0xbf5709ba	-0.83999217
179	0xbe3af5dd	-0.18257852
180	0xbf5ca8a8	-0.8619485
181	0xbeae54e5	-0.34049144
182	0xbea62a9d	-0.32454386
183	0xbec5fece	-0.38670963
184	0xbeee0646	-0.4648916
185	0xbf40b86c	-0.75281405
186	0xbf152244	-0.5825541
187	0xbf87e1d8	-1.0615797
188	0xbf780a78	-0.96890974
189	0xbf0df88e	-0.5545739
190	0xbf50ef3c	-0.8161504
191	0xbf5ef5c1	-0.8709374
192	0xbf1f23ad	-0.6216381
193	0xbf188a76	-0.59586275
194	0xbf59a42c	-0.8501613
195	0x3f5a15d4	0.8518956
196	0xbf4d1b3f	-0.801197
197	0xbed39071	-0.41321138
198	0xbf118462	-0.56842625
199	0xbf508844	-0.81457925
200	0xbee94789	-0.4556239
201	0xbf46b052	-0.77612793
202	0xbf843a91	-1.0330373
203	0x3e0f9e4b	0.14025228
204	0xbf531d57	-0.82466644
205	0xbf8e8cde	-1.1136739
206	0xbe27a9bd	-0.16373344
207	0x3ea49f97	0.32153007
208	0xbf340229	-0.70315796
209	0xbf82fc87	-1.0233315
210	0x3d95b0c8	0.07309109
211	0xbf8167ac	-1.0109763
212	0xbebb920c	-0.36634862
213	0xbe0e88df	-0.139194
214	0xbec6f305	-0.38857284
215	0xbf44f83a	-0.76941264
216	0xbf787057	-0.97046417
217	0xbf421dab	-0.7582652
218	0xbef0b82c	-0.47015512
219	0xc01874b0	-2.382122
220	0xbf360275	-0.710975
221	0xbdd05043	-0.10171559
222	0xbf9c73d5	-1.2222849
223	0xbf587bb6	-0.8456377
224	0x3fbb0c86	1.4613197
225	0xbf335542	-0.7005197
226	0x3e8548da	0.26032144
227	0x403f7924	2.9917688
228	0x3f7758d1	0.966199
229	0x40710624	3.7659998
230	0x3f7acd2f	0.97969335
231	0xc10eb176	-8.918325
232	0x3fec15cb	1.8444151
233	0x40c24d80	6.0719604
234	0xc0e09ce9	-7.019154
235	0x3f0bc930	0.5460386
236	0xc07246e7	-3.7855775
237	0xc09ed2b3	-4.96322
238	0xbe970bb7	-0.29501125
239	0x3fb0259c	1.3761477
240	0x3c979955	0.018505732
241	0xbf57d7ef	-0.84313864
242	0xc0c32f2c	-6.0995083
243	0x3eef3cb1	0.4672599
244	0xbfb94771	-1.4474927
245	0x3db1e07c	0.08685395
246	0xc0caa4b4	-6.3326054
247	0xc078965c	-3.8841772
248	0xc0f6d647	-7.713657
249	0xc0ba2074	-5.8164616
250	0xbf82877e	-1.0197599
251	0x3fa3a6df	1.27853
252	0xc14fc594	-12.985737
253	0xbe8b82fa	-0.27248365
254	0x3f336f1c	0.70091414
255	0xbe3c6bfb	-0.18400566

bias f4 [104]
0	0xc0227351	-2.5382884
1	0xc0152afa	-2.330748
2	0xc0b16a4b	-5.544225
3	0xc0304a02	-2.754517
4	0xc008a87f	-2.1352842
5	0xc0001b8b	-2.001681
6	0xbff43d43	-1.9081196
7	0xc1754e96	-15.331686
8	0xc02b91b4	-2.680768
9	0xc08d68f3	-4.419061
10	0xc032c099	-2.7930052
11	0xc09c9598	-4.893261
12	0x42a81290	84.036255
13	0xc0272d93	-2.6121566
14	0xc25c1fec	-55.031174
15	0xc02caedb	-2.6981723
16	0xc15cea91	-13.807267
17	0xc00610ae	-2.094768
18	0xbf907454	-1.12855
19	0xc00e28be	-2.2212367
20	0xc00804a1	-2.1252825
21	0xc028ab8c	-2.6354704
22	0xc02cea63	-2.7018058
23	0xc0253847	-2.58156
24	0xc02365c3	-2.553086
25	0xc00b7ebf	-2.179611
26	0xc00da8d1	-2.2134287
27	0xc0876bca	-4.231908
28	0xc0214503	-2.5198371
29	0xc0321fbe	-2.7831874
30	0xc01fe56b	-2.4983776
31	0xc025b309	-2.5890524
32	0xc0294784	-2.64499
33	0xc019efb0	-2.4052544
34	0xc03aaba6	-2.9167266
35	0xc013744a	-2.3039727
36	0xc00150bc	-2.0205526
37	0xc022ff1e	-2.546821
38	0xc01b725b	-2.4288547
39	0xc001081d	-2.0161202
40	0xc0296240	-2.6466217
41	0xc013c7e1	-2.3090746
42	0xc03a895a	-2.9146333
43	0xc02ca70a	-2.6976953
44	0xc01935b2	-2.3939023
45	0xc0222eb0	-2.5340996
46	0xc0047f01	-2.0702517
47	0xc01c3dbb	-2.4412677
48	0xc01fc5f0	-2.4964561
49	0xc014fda3	-2.3279808
50	0xc01d8aa3	-2.4615867
51	0xc0246803	-2.5688484
52	0xc02f3dc7	-2.7381456
53	0xc008b1c6	-2.1358504
54	0xc023e768	-2.560999
55	0xc00c59ab	-2.192973
56	0xc02647e8	-2.5981388
57	0xc02b6288	-2.6778889
58	0xc031253f	-2.7678983
59	0xc030f255	-2.7647908
60	0xc0290f81	-2.6415713
61	0xbffb5471	-1.9635144
62	0xc024b8bc	-2.5737753
63	0xc0131aee	-2.2985187
64	0xc0289a5d	-2.6344216
65	0xc0888885	-4.266665
66	0xc0376085	-2.865266
67	0xc037149c	-2.860633
68	0xc00cfa09	-2.202761
69	0xc022597e	-2.5367122
70	0xc02d67db	-2.7094638
71	0xc02646f8	-2.5980816
72	0xc080c901	-4.0245366
73	0xc01b911e	-2.4307323
74	0xc01f8f24	-2.4931116
75	0xc022efa9	-2.5458777
76	0xbfdb83b6	-1.714957
77	0xc02b6be0	-2.6784592
78	0xc018e7a4	-2.3891382
79	0xbfd3b423	-1.6539348
80	0xc00e9054	-2.227559
81	0xc01bffe6	-2.4374938
82	0xc017247f	-2.3616025
83	0xc02d58e2	-2.70855
84	0xbff91111	-1.9458333
85	0xc0422dba	-3.034041
86	0xc02342f7	-2.5509622
87	0xc02997c0	-2.649887
88	0xc029cb47	-2.653032
89	0xbfc999e2	-1.5750086
90	0xc02565f1	-2.584347
91	0xc02d0356	-2.7033286
92	0xc01dc24a	-2.4649835
93	0xc025b40a	-2.5891137
94	0xc0512c2b	-3.2683208
95	0xc02e1db4	-2.720563
96	0xc02b8e62	-2.6805654
97	0xc02014e2	-2.5012746
98	0xc0308f4d	-2.7587464
99	0xc01bf38a	-2.4367394
100	0xc0362cf8	-2.8464947
101	0xc002207b	-2.0332325
102	0xc01ab5ff	-2.4173582
103	0xc01e0c29	-2.4694922
